snake_AI-main-gpu/snake_AI-main-gpu/model/model.pth (torch, 13779 bytes, 4 tensors)

linear1.weight f4 [128, 20]
0	0x3e808078	0.25098014
1	0xbc6c6b0d	-0.01442982
2	0x3c439a30	0.011938617
3	0xbf1fbf77	-0.6240153
4	0x3f541666	0.8284668
5	0xbf79d92a	-0.9759699
6	0xbf0fb062	-0.56128514
7	0xbf5f606c	-0.87256503
8	0x3dc9e037	0.09857219
9	0xbe477b17	-0.19480549
10	0x3e83c5b8	0.25736785
11	0xbf20335d	-0.62578374
12	0xbf6f9c64	-0.9359801
13	0x3ec3aede	0.3821935
14	0xbf112129	-0.56691223
15	0x3e8c8766	0.2744705
16	0x3dfe4afe	0.124166474
17	0xbe2d8cb4	-0.16948205
18	0x3e661035	0.2246712
19	0x3ea32815	0.31866518
20	0xbda556cc	-0.08073196
21	0xbdda3a32	-0.10655631
22	0x3dc75d8b	0.09734639
23	0x3daddf27	0.084898286
24	0xbf7208d1	-0.945447
25	0xbf7e348d	-0.99298936
26	0xbf5f47bf	-0.8721885
27	0xbf9053a9	-1.1275531
28	0xbd816f97	-0.06320112
29	0xbde91285	-0.113804854
30	0x3e18ee09	0.14934553
31	0xbdacf91b	-0.084459506
32	0x3ea20355	0.31643167
33	0x3e63aedd	0.22234674
34	0x3ef3d03e	0.47619814
35	0x3d8deea2	0.06930281
36	0x3d6f9754	0.058493927
37	0x3d42d6e6	0.047568224
38	0x3d55bd5d	0.052182544
39	0x3e140466	0.14454803
40	0x3eeec4eb	0.4663461
41	0x3e300f86	0.17193422
42	0xbe890c62	-0.2676726
43	0x3e1ff340	0.15620136
44	0xbec65a0f	-0.38740584
45	0x3e7fb2b9	0.24970521
46	0xbda71498	-0.08158225
47	0x3f02eb69	0.5114046
48	0x3eb0d4dd	0.34537402
49	0xbdb8ddd8	-0.09026688
50	0x3db74033	0.08947792
51	0x3d5d817e	0.05407857
52	0xbf8d16ef	-1.1022624
53	0x3e3258bf	0.17416666
54	0xbe8a0a36	-0.26960915
55	0x3eb0886b	0.3447908
56	0xbe81e527	-0.25370142
57	0x3eb76721	0.3582087
58	0xbd6212cc	-0.055193707
59	0x3e704692	0.2346442
60	0xbdbc3b08	-0.09190947
61	0xbe003892	-0.1252158
62	0x3ea4c9c4	0.32185185
63	0x3dff9bed	0.12480912
64	0x3fc53f39	1.5409919
65	0x3fcb80cd	1.5898682
66	0x3ecdbda5	0.4018375
67	0x3f044b0e	0.51677024
68	0xbe9e0d2c	-0.30869424
69	0xbf102ddd	-0.5631998
70	0x3c5a9e4e	0.013343407
71	0xbd25d50d	-0.040486384
72	0xbf1a5318	-0.6028304
73	0xbf7941ca	-0.9736601
74	0xbd17fc54	-0.037105873
75	0x3d3c31b9	0.045945857
76	0x3e8f3778	0.27972007
77	0xbe7b3deb	-0.24535339
78	0xbe5b798a	-0.21433082
79	0x3e082b35	0.13297732
80	0x3d66d9af	0.056359943
81	0xbecb4214	-0.3969885
82	0x3e7d02ba	0.24708071
83	0xbc99ab8f	-0.018758563
84	0x3f3bba4c	0.7333114
85	0xbe85a53e	-0.26102632
86	0x3eb3def9	0.35131052
87	0x3f0c3a6b	0.5477664
88	0xbed642e0	-0.41847897
89	0xbe173285	-0.14765365
90	0x3e904ca2	0.28183466
91	0x3e06243b	0.13099758
92	0xbb963a6c	-0.004584601
93	0x3c1c3b02	0.009535553
94	0xbf063388	-0.5242238
95	0x3eb753e1	0.35806182
96	0xbe9ed80a	-0.310242
97	0x3f122bf4	0.5709832
98	0x3f087aa5	0.5331214
99	0xbf24ffc6	-0.6445278
100	0xbddff4c8	-0.1093536
101	0xbcef1272	-0.0291836
102	0x3ec3e522	0.38260752
103	0xbeba065f	-0.36332986
104	0xbf1f11de	-0.6213664
105	0x3f050cde	0.5197276
106	0xbf16604c	-0.5874069
107	0x3eada03b	0.3391131
108	0x3e655e97	0.22399364
109	0x3d80b487	0.06284433
110	0x3e4604cd	0.19337769
111	0xbe2daa30	-0.16959453
112	0x3ef3c65c	0.47612274
113	0xbe392866	-0.18081817
114	0xbd69486a	-0.056953825
115	0x3da1a33d	0.07892463
116	0x3e8c4d5f	0.2740278
117	0xbdd39519	-0.103311725
118	0xbd81fded	-0.063472606
119	0xbd897e4b	-0.067135416
120	0x3c809882	0.015697721
121	0x3e296d20	0.16545534
122	0xbf33c5c8	-0.70223665
123	0xbf055075	-0.5207589
124	0x3eaad437	0.33365032
125	0x3f41a2a1	0.75638777
126	0xbf465de3	-0.7748701
127	0xbfb56d3f	-1.4173964
128	0x3eaf56b5	0.3424584
129	0x3eb25b28	0.34835172
130	0xbeef03b7	-0.46682522
131	0xbf063292	-0.52420914
132	0x3d96d93b	0.07365652
133	0x3e17c742	0.14822105
134	0xbf44e440	-0.7691078
135	0xbeda53f3	-0.42642173
136	0xbd5f1514	-0.05446346
137	0xbdcf85c7	-0.10132938
138	0x3ee00855	0.43756357
139	0x3e994227	0.29933283
140	0xbed9f4ae	-0.42569488
141	0xbdbde512	-0.09272207
142	0xbe86b994	-0.2631346
143	0x3c341c8f	0.010993137
144	0x3fa673d4	1.3004098
145	0xbebd3fb7	-0.36962673
146	0xbf38e566	-0.72225034
147	0x3d21713e	0.039414637
148	0xbe488cea	-0.19585004
149	0xbef46448	-0.4773276
150	0x3d91c315	0.07117287
151	0xbe1b29d6	-0.15152678
152	0xbe30177e	-0.17196462
153	0xbf195a43	-0.59903353
154	0x3e8d4da5	0.275983
155	0xbdef5761	-0.11686588
156	0x3ece9af2	0.4035259
157	0xbdb3bf39	-0.08776707
158	0xbcec40fc	-0.02883958
159	0xbe698c07	-0.22807322
160	0x3e6a0215	0.22852357
161	0x3e9c70e5	0.30554882
162	0xbe1cac83	-0.15300183
163	0x3d40646b	0.046970766
164	0x3eeef9e7	0.46675035
165	0xbf8192c3	-1.0122913
166	0x3f3ee215	0.74563724
167	0xbd670cb5	-0.056408603
168	0x3d73b241	0.059496168
169	0x3e43160d	0.1905138
170	0x3e67de45	0.22643383
171	0x3e60e790	0.21963334
172	0xbf7d1c74	-0.9887154
173	0x3d5530cd	0.052048493
174	0x3eafc65e	0.3433103
175	0xbf4cc5fe	-0.7998961
176	0xbcb155e6	-0.021647405
177	0xbc4a9d6a	-0.012366632
178	0xbf123af9	-0.57121235
179	0x3f0f0da0	0.55880165
180	0xbf0e7895	-0.55652744
181	0x3e3b7a4e	0.18308374
182	0x3e67f6f1	0.22652794
183	0xbf1508aa	-0.58216345
184	0x3f5cf7e3	0.86315745
185	0xbefabb35	-0.48970953
186	0xbf1ea3c4	-0.61968637
187	0xbf377269	-0.7165895
188	0x3df3b017	0.11898821
189	0xbe9fc48b	-0.31204638
190	0xbd265400	-0.040607452
191	0xbf0a5106	-0.5402988
192	0xbea05a1b	-0.31318745
193	0x3f0270a3	0.5095312
194	0xbe05fe65	-0.13085325
195	0xbedfb006	-0.43688983
196	0x3cfff322	0.031243864
197	0xbe65fd6b	-0.22459953
198	0xbed2112a	-0.4102872
199	0x3c07de56	0.008292755
200	0x3ec1ee30	0.37877035
201	0x3d0e211d	0.034699548
202	0xbeab4199	-0.33448485
203	0x3e8922f6	0.26784486
204	0xbc011ecd	-0.007880879
205	0xbf5ef5d5	-0.8709386
206	0xbe4d8280	-0.20069313
207	0x3f20406a	0.6259829
208	0xbdf3383b	-0.118759595
209	0x3cbe17a8	0.02320464
210	0xbf2c268c	-0.6724632
211	0x3e1ae08e	0.15124723
212	0x3ebefa09	0.37300137
213	0x3e85cf2e	0.26134628
214	0x3d94778c	0.07249364
215	0xbeda3f81	-0.42626575
216	0x3db029d0	0.08601725
217	0x3d954709	0.072889395
218	0x3df51a06	0.11967854
219	0xbd14e800	-0.036354065
220	0x3e365efe	0.17809674
221	0xbead4432	-0.3384109
222	0xbd353b8a	-0.044246234
223	0xbe768759	-0.24075069
224	0x3f610406	0.87896764
225	0x3f240bab	0.64080304
226	0xbf374628	-0.71591425
227	0xbda0b51e	-0.07847045
228	0xbe5d78b1	-0.21628071
229	0x3e76869e	0.2407479
230	0xbdde3bd8	-0.10851258
231	0x3e036fcf	0.1283562
232	0x3ddc3bc7	0.10753589
233	0x3e5dbe3e	0.21654603
234	0xbf39dce6	-0.7260269
235	0x3ee05e52	0.4382196
236	0xbe71d453	-0.23616152
237	0x3ef96a24	0.4871379
238	0x3f165ecc	0.587384
239	0x3b247d7d	0.002509921
240	0xbe1a27b8	-0.15054214
241	0x3dfddce4	0.12395647
242	0xbe94ba1f	-0.2904825
243	0xbeb3a2a2	-0.35085016
244	0x3f8211c9	1.0161678
245	0xbde1e71f	-0.11030411
246	0x3f09e4c2	0.5386468
247	0xbf31faa5	-0.6952308
248	0xbdb7f05e	-0.08981393
249	0xbe8f125a	-0.2794369
250	0xbdeb5fb1	-0.11492861
251	0xbed57997	-0.41694328
252	0xbe837acf	-0.25679633
253	0x3e4747bf	0.19460963
254	0x3e3f9d4e	0.1871235
255	0x3d9015a1	0.070353754

linear1.bias f4 [128]
0	0x3e83db20	0.25753117
1	0x3ebd523c	0.36976802
2	0xbe1eee98	-0.15520704
3	0xbe2cd3f2	-0.16877726
4	0xbdfdde2d	-0.12395892
5	0x3e4a9e42	0.19786933
6	0x3eb3b49c	0.35098732
7	0xbdc1f2f9	-0.094701715
8	0xbeb800cd	-0.3593811
9	0x3e814f84	0.25255978
10	0x3e92a817	0.28643867
11	0xbc95e10e	-0.018295791
12	0xbe24289a	-0.16031113
13	0xbbab95b3	-0.0052363514
14	0x3e63c696	0.22243723
15	0xbdb4a3db	-0.088203155
16	0x3ee7c3f9	0.45266703
17	0xbc4dba3a	-0.012556607
18	0xbdb4cc08	-0.088279784
19	0x3e30e314	0.17274123
20	0x3e275663	0.16341548
21	0xbe1b5d4a	-0.15172306
22	0xbb9c03fa	-0.004761216
23	0xbd81f919	-0.0634634
24	0x3bc29459	0.0059380946
25	0x3d9c6516	0.07636468
26	0x3dbbb55b	0.0916545
27	0xbd4e3b36	-0.050349437
28	0xbd4e3a1a	-0.05034838
29	0x3e4fe37e	0.20301625
30	0x3ea027cb	0.3128036
31	0xbde20656	-0.11036365
32	0xbe015251	-0.12629057
33	0xbe4c9ab3	-0.19980888
34	0xbe5573fd	-0.20845027
35	0x3e870f3d	0.26378813
36	0x3db7c8fa	0.0897388
37	0x3d92812d	0.071535446
38	0x3d449203	0.04799081
39	0x3d7c37c9	0.06157664
40	0x3e453484	0.19258314
41	0x3e73e21d	0.23816724
42	0x3e4867b1	0.19570805
43	0x3ed9f2e7	0.42568132
44	0xbbdaf4a9	-0.006681998
45	0x3dc90ff8	0.09817499
46	0x3ddadf5d	0.106871344
47	0xbdcd45d4	-0.10023084
48	0xbedad0c8	-0.42737412
49	0xbe88e766	-0.26739043
50	0x3ea23244	0.31678975
51	0xbd091e9b	-0.033476453
52	0x3c74d887	0.014944202
53	0x3db4fc99	0.08837242
54	0xbe4a0fae	-0.19732544
55	0x3e835114	0.25647795
56	0x3e0dcf9a	0.13848725
57	0x3e2b02f5	0.16700347
58	0x3e6c593a	0.23080912
59	0xbdb3e43a	-0.08783765
60	0x3ec66eec	0.38756502
61	0xbe230f7b	-0.15923874
62	0x3d97adeb	0.07406219
63	0xbe52cb3b	-0.20585339
64	0x3e554d06	0.20830163
65	0xbdd6e5f6	-0.1049308
66	0x3eb19c81	0.34689716
67	0x3d9feae1	0.078084715
68	0xbe6e1ae7	-0.2325245
69	0x3e7a3bac	0.24436826
70	0xbd95907b	-0.07302948
71	0x3e07f373	0.13276462
72	0xbd248aa1	-0.04017127
73	0x3e5fad5d	0.21843477
74	0xbe62d5a9	-0.22151817
75	0x3b9f07b9	0.0048532155
76	0xbd5846bd	-0.052801836
77	0xbdfd5cfa	-0.123712495
78	0x3e655f5b	0.22399656
79	0x3e558452	0.20851257
80	0xbdd2610b	-0.10272416
81	0xbd250277	-0.040285554
82	0x3e84ac73	0.25912818
83	0x3de4d8cc	0.11174163
84	0xbe5c0d8c	-0.21489543
85	0x3d0023ee	0.031284265
86	0x3d4bcf53	0.049758267
87	0xbcee2047	-0.029068125
88	0x3e058209	0.13037886
89	0x3e15afcd	0.14617844
90	0xbe88da61	-0.2672911
91	0xbd009b98	-0.031398386
92	0x3bbf5c40	0.0058398545
93	0x3e747099	0.23871078
94	0x3db3d83f	0.0878148
95	0x3c7f587f	0.015585064
96	0x3ea60996	0.32429188
97	0x3d33d174	0.043900922
98	0xbb6f096b	-0.003647412
99	0x3dbc02be	0.091802105
100	0x3e0850cb	0.1331207
101	0x3dae6e9b	0.0851719
102	0x3e8e96f3	0.2784954
103	0xbe9873de	-0.297759
104	0xbd7c5279	-0.06160209
105	0x3e41b5f1	0.18917061
106	0xbda240b1	-0.07922495
107	0x3e018639	0.12648858
108	0xbdcfe829	-0.10151703
109	0xbec78a42	-0.3897267
110	0xbd21b5b5	-0.03947993
111	0x3df16ffc	0.117889374
112	0xbdfa48d5	-0.12220923
113	0xbdcf3101	-0.10116769
114	0xbe27f639	-0.1640252
115	0xbe05ec2c	-0.13078374
116	0xbe24e9ee	-0.16104862
117	0xbe2b3819	-0.16720618
118	0x3e0388ad	0.12845106
119	0x3e9f5b24	0.31124222
120	0x3eb36335	0.35036626
121	0xbe06c993	-0.13162832
122	0xbd150353	-0.036380123
123	0x3ef1ac68	0.47201848
124	0x3da3a6d0	0.07990801
125	0x3e6526a9	0.22378029
126	0x3d89f7aa	0.06736691
127	0xbd31333b	-0.043261748

linear2.weight f4 [3, 128]
0	0xbe8c90eb	-0.27454314
1	0x3f886fd0	1.0659122
2	0x3e6ff784	0.23434263
3	0x3f913246	1.1343467
4	0xbf630b28	-0.886889
5	0x3e2126e7	0.15737496
6	0xbf37d117	-0.7180342
7	0xbf1c71f2	-0.61111367
8	0x3da33f04	0.07971004
9	0xbe44e97a	-0.19229689
10	0x3f6f3779	0.9344402
11	0xbeea26d3	-0.45732746
12	0xc0072073	-2.1113555
13	0x3dd131b1	0.10214556
14	0xbe261b00	-0.16221237
15	0x3f8f275e	1.1183889
16	0x3f4b8bc0	0.79510117
17	0x3e38330f	0.17988227
18	0xbf933dde	-1.1503255
19	0xbc3fdfaf	-0.011711045
20	0x3f1cc3e9	0.61236435
21	0xbf0034e2	-0.5008069
22	0x3f66a54a	0.9009596
23	0xbf362ed9	-0.71165234
24	0x3f0139a8	0.504786
25	0x3c86fedc	0.016478948
26	0x3ebe2cb4	0.3714348
27	0xbe4e2d78	-0.20134532
28	0xbd599de8	-0.053129107
29	0x3f3460b4	0.7046006
30	0x3e4e2ba3	0.20133834
31	0xbddc1a33	-0.107471846
32	0x3d04ec9c	0.03245221
33	0x3af9b35b	0.0019050644
34	0x3d316fd4	0.04331954
35	0x3ea90115	0.33008638
36	0xbe5a5c5f	-0.213243
37	0xbe122e07	-0.1427537
38	0xbe6a173d	-0.22860427
39	0xbde670bf	-0.11251973
40	0x3e11b01f	0.14227341
41	0x3f47faaa	0.7811686
42	0xbe200679	-0.15627469
43	0x3e3bd9ef	0.18344854
44	0x3f04669a	0.5171906
45	0xbcfe16cd	-0.031016732
46	0x3edbc7bd	0.42925826
47	0xbe3288d4	-0.17435008
48	0xbe9f9f69	-0.31176308
49	0xbcdbc7ab	-0.026828608
50	0x3ef3afac	0.47594965
51	0xbe973860	-0.29535198
52	0xbe9f9d00	-0.3117447
53	0x3f9b7ff7	1.2148427
54	0xbdc41a4a	-0.09575327
55	0x3e4af3ef	0.19819616
56	0xbd81dd65	-0.06341056
57	0xbe590b59	-0.21195735
58	0xbf77017b	-0.96486634
59	0x3d678fd1	0.05653364
60	0x3f46f6dc	0.7772043
61	0xbdea180c	-0.11430368
62	0xbe759052	-0.23980835
63	0xbea5154c	-0.3224281
64	0x3ec0fb85	0.37691894
65	0x3d7d92d6	0.06190761
66	0x3f993d1e	1.1971776
67	0xbd6464da	-0.055760242
68	0x3da1ce36	0.0790066
69	0xbf051801	-0.5198975
70	0x3e9c7fb1	0.3056617
71	0xbee1b831	-0.4408584
72	0x3f5f22f7	0.8716273
73	0x3f420588	0.7578969
74	0xbf167990	-0.5877924
75	0xbeb1dd74	-0.34739268
76	0xbd1cf517	-0.038319673
77	0xbe93b685	-0.2885019
78	0x3fa4e26c	1.2881598
79	0xbdfd25d7	-0.12360733
80	0x4001d97b	2.028899
81	0xbf12ba60	-0.57315636
82	0x3edc3380	0.4300804
83	0xbebd966e	-0.3702883
84	0xbed4b527	-0.41544458
85	0x3933f57d	0.00017162222
86	0x3e067d63	0.13133769
87	0xbf52e98a	-0.823876
88	0xbeec537d	-0.46157447
89	0xbe794448	-0.24342453
90	0xbeeb4e3d	-0.4595813
91	0x3f05ed30	0.52315044
92	0x3c94746f	0.018121926
93	0xbe0d5065	-0.138002
94	0x3ec2736e	0.3797869
95	0xbeccf55a	-0.40030938
96	0x3d50512a	0.050858654
97	0xbf7e388b	-0.9930503
98	0x3fa1295f	1.259075
99	0xbfe00ad6	-1.7503307
100	0x3f2cbd1f	0.67476076
101	0x3f97b755	1.1852823
102	0xbd8ff94a	-0.0702997
103	0x3bd7a92d	0.0065814466
104	0xbd1b9dc1	-0.037992243
105	0xbde58bbe	-0.11208294
106	0xbea9e404	-0.33181775
107	0xbded864f	-0.11597883
108	0x3e8c7898	0.27435756
109	0x3f36e06f	0.7143621
110	0xbef576f9	-0.4794233
111	0x3f14dc70	0.5814886
112	0x3dffef47	0.124968104
113	0xbe1f8c2d	-0.15580817
114	0xbf0c9f2d	-0.5493038
115	0xbd097687	-0.033560302
116	0xbf67d866	-0.9056457
117	0x3faf1971	1.3679639
118	0xbe1d9525	-0.15388925
119	0x3f22a0dd	0.6352671
120	0x3f34e7cc	0.70666194
121	0xbf255d0d	-0.6459511
122	0x3f10b379	0.56523854
123	0x3e8055b5	0.2506539
124	0xbf163295	-0.5867093
125	0xbecb1548	-0.39664674
126	0xbe836d4e	-0.2566933
127	0x3e7f196b	0.2491204
128	0x3f3ddb6d	0.7416294
129	0x3e676be3	0.2259975
130	0xbf450609	-0.76962334
131	0xbf4e47ae	-0.80578125
132	0x3f8ac8ff	1.0842589
133	0xbeb7d662	-0.3590575
134	0x3f4090d7	0.7522101
135	0xbef1cb9f	-0.47225663
136	0xbf16f79f	-0.5897159
137	0x3f1776d4	0.5916569
138	0xbd7b1475	-0.061298806
139	0x3f7bb2ba	0.9831959
140	0xbeb7ba2f	-0.35884234
141	0x3e53fbc7	0.20701514
142	0xbe6eed6f	-0.23332761
143	0x3ec0a46f	0.37625453
144	0x3eb67ca4	0.35641968
145	0xbe58f414	-0.21186858
146	0xbefa9980	-0.48945236
147	0xbe69fa33	-0.2284935
148	0xbeeca11b	-0.46216664
149	0xbefc0544	-0.49222767
150	0x3f2cb8b1	0.67469317
151	0x3f175554	0.59114575
152	0x3f05f4c0	0.52326584
153	0xbf0dd32a	-0.55400336
154	0x3e393d96	0.180899
155	0x3f5c453d	0.8604315
156	0xbe2e6ce6	-0.17033729
157	0x3e85644b	0.2605308
158	0x3f4e7d49	0.8065992
159	0xbe927127	-0.28601953
160	0xbd0c0e7b	-0.034193497
161	0x3c9abc20	0.018888533
162	0x3e0de7e2	0.13857988
163	0x3f188708	0.5958104
164	0x3f0152be	0.5051688
165	0x3f49d805	0.78845245
166	0x3f1c39d8	0.6102576
167	0xbf012cf1	-0.504592
168	0xbe483581	-0.1955166
169	0x3eeb2733	0.45928344
170	0xbf714e3e	-0.94260013
171	0x3f30a4b7	0.69001335
172	0xbf1e49f0	-0.6183157
173	0xbf91d3e5	-1.139279
174	0x3e0131f8	0.12616718
175	0xbf1839f4	-0.5946343
176	0x3fc03d03	1.5018619
177	0xbdb368b8	-0.08760208
178	0xbf3100d4	-0.6914189
179	0xbec6f045	-0.38855186
180	0xbebfd203	-0.37464914
181	0xbdfcff89	-0.12353427
182	0x3fc6c030	1.5527401
183	0x3ea763ad	0.32693234
184	0xbd16584a	-0.036705293
185	0x3ef7f7ad	0.4843115
186	0x3f686a0d	0.9078682
187	0x3f42a5ed	0.7603443
188	0x3d417450	0.047230065
189	0xbf014e7a	-0.5051037
190	0x3f83d20a	1.0298474
191	0xbe68315c	-0.22675079
192	0x3fb6a5da	1.4269364
193	0xbd77b9e5	-0.060480017
194	0xbf1eca2e	-0.6202725
195	0xbeee51c3	-0.46546754
196	0xba2b353d	-0.00065310654
197	0x3dcae1ec	0.099063724
198	0xbefd37b5	-0.49456564
199	0xbe2d0c16	-0.16899142
200	0xbdacf874	-0.08445826
201	0xbe4cfca7	-0.20018254
202	0xbf44f7a2	-0.7694036
203	0xbec9ddae	-0.3942694
204	0xbf3992a2	-0.7248937
205	0xbf0719e4	-0.5277388
206	0x392691dc	0.0001588533
207	0xbeca2cbf	-0.39487264
208	0xbf6ab84c	-0.91687465
209	0x3f25ba1f	0.64737123
210	0xbf607112	-0.8767253
211	0xbf2649d4	-0.649564
212	0xbe37c596	-0.17946467
213	0xbee1decd	-0.44115296
214	0x3f9fe53e	1.2491834
215	0x3f64be74	0.8935311
216	0x3fa22283	1.2666782
217	0x3d574fb1	0.052566234
218	0xbe871e2d	-0.2639021
219	0x3ea0c537	0.31400463
220	0x3cb7ec94	0.022451676
221	0x3ef38517	0.47562477
222	0xbf41211d	-0.7544115
223	0x3ec6993f	0.38788792
224	0x3f19b9c5	0.60049087
225	0xbf4cd44e	-0.8001145
226	0x3faa2d8e	1.3295152
227	0x3f89da7b	1.07698
228	0x3ed5543d	0.4166583
229	0x3f3a677a	0.7281414
230	0x3f526967	0.8219208
231	0x3f54ecfd	0.83174115
232	0x3f4334bc	0.7625234
233	0x3e7c0bb4	0.2461384
234	0xbf52b91c	-0.82313704
235	0x3e837db4	0.2568184
236	0xbf304d51	-0.68867975
237	0x3fd8f4b0	1.6949673
238	0xbe39e7c8	-0.18154824
239	0xbe299eba	-0.16564456
240	0xbf2bd265	-0.6711791
241	0xbe410c0f	-0.18852256
242	0x3eda5361	0.42641738
243	0xbf89c8e2	-1.076443
244	0xbf391543	-0.7229807
245	0x3e1ee244	0.15516001
246	0x3f04b23f	0.5183448
247	0x3fa76772	1.3078444
248	0x3f489a82	0.7836076
249	0xbfe5d6b7	-1.7956151
250	0x3ed7cae6	0.42146987
251	0x3f0a8564	0.5410979
252	0xbef3c294	-0.4760939
253	0xbe5842cb	-0.2111923
254	0xbe7e386e	-0.24826214
255	0xbf52ed6e	-0.8239354

linear2.bias f4 [3]
0	0xbcccd7d7	-0.025005264
1	0x3d109b4b	0.03530435
2	0x3d19e1a6	0.03756871
