xiao-2048-AI/model/model.pth (torch, 11667 bytes, 4 tensors)

linear1.weight f4 [128, 16]
000000 1a 2a 5c 3e cf f7 9d 3d 86 87 bb 3d 10 e2 3c 3e
       0.21500435 0.07713281 0.091567084 0.18445611
000010 c1 61 0b be a8 cc 1e be ec c4 34 bd 24 2b 02 bc
       -0.13611509 -0.15507758 -0.04413311 -0.007944856
000020 e6 11 b5 3c 42 60 1b 3e 33 32 11 bd 0c 55 00 3e
       0.022103261 0.15173438 -0.035448264 0.12532443
000030 ca 6c 34 3e 47 08 76 3d 91 4c d9 bd 68 a2 f2 3d
       0.17619625 0.060066488 -0.10610307 0.11847383
000040 e9 f7 bc be c7 a8 5f be 17 cd 91 be 9d 5e 09 3e
       -0.3690789 -0.21841727 -0.28476784 0.13414998
000050 d1 43 58 3e 48 31 f6 bc 2f 1b ae be 36 3b ac 3d
       0.2111962 -0.030052796 -0.34005114 0.08409731
000060 88 7c 1d be c4 fd 5d be c7 7d 26 be 56 ba eb bd
       -0.15379536 -0.21678835 -0.16258918 -0.1151015
000070 96 17 1b be 8f df 6d 3e e1 06 2b be f5 be df 3d
       -0.15145716 0.23229812 -0.16701843 0.10925094
000080 33 ad 87 3e a3 a9 55 3e 6e 10 90 3a a2 7e cf 3d
       0.26499328 0.20865493 0.0010991225 0.10131575
000090 d4 32 76 3e ef 95 8d 3e f9 d3 95 3d 75 ff 84 3e
       0.24042827 0.27653453 0.07315821 0.25976148
0000a0 3f 29 97 3d 2b 3d 44 be cf 05 42 3d 37 af 05 be
       0.07380914 -0.19163959 0.04736882 -0.1305512
0000b0 10 74 f1 3d c8 bc 85 3e 1b c2 85 bd d8 a1 e5 3d
       0.11789715 0.2612059 -0.06531163 0.1121251
0000c0 5e 45 76 3e 49 4d b0 bd 85 0b 95 3e f8 0d 05 3d
       0.24049899 -0.08608491 0.2911035 0.032484025
0000d0 00 bb 85 bc 1a 57 8f bc 89 2c a9 3d a7 b4 9f 3c
       -0.01632452 -0.017497588 0.082604475 0.019495321
0000e0 df 49 88 be 13 7f 13 be 40 04 d3 bc f1 b3 25 3e
       -0.2661886 -0.14403944 -0.025758862 0.16181923
0000f0 83 f5 73 bc 03 7d a9 bc f6 a6 00 be 92 00 df 3d
       -0.0148900775 -0.020689493 -0.1256369 0.10888781
000100 3d c2 46 3d 14 16 55 bd ad 9c 95 3e eb 5d 9c 3d
       0.048525084 -0.05202301 0.29221097 0.07635101
000110 89 f2 8a 3d c9 6b 5a 3d a5 3e 54 be 10 64 42 be
       0.06784541 0.05332545 -0.20727022 -0.18983483
000120 3b 60 e4 3c 55 c3 6f bb 01 d3 63 3e d0 ac 36 bd
       0.027877918 -0.0036584933 0.2224846 -0.0445984
000130 93 36 54 be e4 0d bc 3d 32 85 47 be 70 44 7a 3e
       -0.20723943 0.09182337 -0.19484404 0.2444017
000140 1a 2c 65 3d 94 3b 95 3d 10 61 eb 3d c7 44 7c 3e
       0.05595026 0.07286754 0.114931226 0.24635611
000150 fc 6f 41 3e a6 2b 8a 3e 9c 3e f8 bc 9c 0b 6a 3e
       0.18890375 0.26986426 -0.030303292 0.22855991
000160 ef 44 36 3c ef d6 aa bc 2f 70 54 3e ec c1 a1 bd
       0.0111248335 -0.020854441 0.2074592 -0.07898316
000170 94 8b 2b be 15 1e 4c bc b9 08 68 be 0f d7 59 3e
       -0.16752464 -0.012458344 -0.22659577 0.21273445
000180 49 ac 31 3e dc 37 f2 bd 1d fd fe 3d 0d 0d d7 3d
       0.17350878 -0.118270606 0.12450621 0.10500536
000190 25 c9 dd 3d 4f e1 d0 bd c6 ac 0d 3e 0c 4f 2d bd
       0.10829381 -0.10199224 0.13835439 -0.042311713
0001a0 7e bf 76 be 64 0d 99 bd 54 f4 e6 3d a3 d0 58 bd
       -0.24096486 -0.07473257 0.11277071 -0.052933346
0001b0 f1 6f 3c 3d 61 39 b8 bd cb 48 8a 3e f6 2c af 3d
       0.046005193 -0.08995319 0.27008662 0.085534975
0001c0 f9 6d b8 bc 14 c7 a7 3d ea b5 81 3e 34 8b b5 3d
       -0.022513377 0.08192268 0.25334102 0.088644415
0001d0 97 43 48 3b 63 82 07 3e 80 e3 8a 3e 55 b0 14 3e
       0.0030557865 0.13233332 0.27126694 0.1452039
0001e0 e6 f4 d6 3d d3 2d e4 bd 77 4d 5e 3e fd fa dd bd
       0.104959294 -0.11141553 0.21709238 -0.10838888
0001f0 13 6b 33 3e ae 00 17 bd 4b 69 57 3d 61 dd 95 3e
       0.17521314 -0.036865883 0.05259065 0.2927046
000200 b0 b3 c5 3d 75 78 3f 3e 60 38 ee bd a5 c0 97 be
       0.09653413 0.18698294 -0.116318464 -0.29639164
000210 d7 90 18 3e a8 39 53 bc ab cb 02 be f3 73 dc 3d
       0.14899002 -0.012892164 -0.12773006 0.10764303
000220 ed ca 92 3d b3 49 ac bd 6d f1 85 bd 51 52 8e be
       0.07167611 -0.084124945 -0.06540189 -0.27797177
000230 e3 da ab be a2 cd 3c 3d 55 90 ec 3d 70 56 fa bd
       -0.33565435 0.046094544 0.11550967 -0.12223518
000240 00 bc 99 3e e6 f3 b8 bc 9b 35 d2 3b c7 c7 92 3e
       0.30026245 -0.022577237 0.0064150817 0.28668043
000250 a6 d9 9e 3d 21 5d 0b bd b1 e0 a1 bd cf 14 af 3d
       0.07756357 -0.03402436 -0.079041846 0.08548891
000260 55 ca 65 3e 16 cd 4f be fb fe 64 3e 64 34 b3 3d
       0.22440465 -0.20293078 0.22362892 0.08750227
000270 ae 4b fb bd e8 62 42 3e ab 2f 23 be d5 fe 51 3e
       -0.12270294 0.18983042 -0.15936153 0.20507367
000280 80 0b e4 3d 0f fd 24 3e b4 29 81 bc bb 85 87 be
       0.11135006 0.16112159 -0.015766956 -0.26469216
000290 e3 a6 9d 3d dd 99 07 be c1 47 98 be 6c ee 1a 3e
       0.07697847 -0.13242288 -0.29742244 0.15130013
0002a0 5d 7b 33 3e bd c8 62 bc a2 0c 11 bd e5 1b 88 be
       0.17527528 -0.013841805 -0.03541244 -0.26583782
0002b0 c8 e9 8a 3e 7d 2a 26 bd 5f 1b 8a 3e 42 40 b5 3d
       0.27131486 -0.040567864 0.26974007 0.08850147
0002c0 7d 33 b2 bc c7 96 4e be 22 cb 3a 3c 38 95 51 be
       -0.021753067 -0.20174704 0.01140097 -0.20467079
0002d0 35 78 bb 3d 33 d8 40 3d ed 61 d5 be 28 91 e3 3d
       0.09153787 0.047081184 -0.41676274 0.11111671
0002e0 70 59 05 39 5c 3c ef ba 99 82 c2 3d cf 02 35 3e
       0.00012717186 -0.0018252241 0.09497566 0.17676853
0002f0 d7 b3 54 be 0b e1 4d be fb b4 45 3e e3 ee d2 bd
       -0.20771728 -0.20105378 0.1930732 -0.1029947
000300 c8 52 a2 bd 86 bf 14 be 2c 50 37 be 48 f3 28 bd
       -0.079259455 -0.14526185 -0.17901677 -0.041247636
000310 5c 78 0c be 20 c9 79 bc e0 cd 90 bc 9e cd 55 bc
       -0.13717788 -0.015245706 -0.017676294 -0.013049511
000320 44 00 8a bd d8 5a 62 be 4e 29 07 be 90 db 91 3d
       -0.06738332 -0.22104967 -0.1319935 0.07121956
000330 90 b7 76 3d 48 83 4b 3d ce 89 6a be fa 9f 7c be
       0.060233653 0.049685746 -0.22904131 -0.24670401
000340 ef 22 99 bc 5f 4d 22 be e2 08 04 3e fb 5d e4 3d
       -0.018693415 -0.15849827 0.12894014 0.11150738
000350 7e 13 6f bc d7 2b 52 be c5 09 27 3e 61 8d 0a be
       -0.01459205 -0.20524536 0.1631232 -0.13530494
000360 3c fe f4 3d d4 71 83 3e 20 96 e3 bd 67 90 89 be
       0.11962554 0.2567278 -0.111126184 -0.26867983
000370 b5 b5 8f bd f3 4d 50 3e 42 36 83 3d 70 e4 98 3b
       -0.0701708 0.20342235 0.06406833 0.0046659037
000380 c1 7d 5c be f8 4e a0 3e b9 be 1c 3e 8c 5b d6 3c
       -0.21532346 0.31310248 0.1530713 0.0261667
000390 b8 cf 69 3e 1e 6e 6d 3e ac 5d 82 3e 0f dc 8b bc
       0.22833145 0.23186538 0.2546209 -0.017072706
0003a0 2b c7 13 be 48 de 0f be 4e fa 0f be eb 75 cb 3c
       -0.14431445 -0.14049637 -0.14060327 0.024836501
0003b0 45 f0 72 be 2e 8c 31 3d 56 5c b4 be 83 26 56 be
       -0.23724468 0.043346576 -0.35226697 -0.20913129
0003c0 77 91 93 3d 5c ec 9e 3c 1b 1f a2 bc 5b 78 58 3e
       0.072054796 0.019399814 -0.019790223 0.21139662
0003d0 4d d8 17 3e c9 47 b3 3d d8 f0 21 be d5 01 25 be
       0.14828606 0.08753926 -0.15814531 -0.1611398
0003e0 59 85 82 3d 3a b6 48 3d bd ae 9f 3d 13 61 37 3e
       0.0637309 0.04900191 0.077970006 0.17908125
0003f0 5d f5 34 be 86 80 1d bd b4 82 a6 be ed a5 ab bd
       -0.17671724 -0.038452648 -0.32521594 -0.08381257

linear1.bias f4 [128]
000000 e4 0c ce 3e 83 5f 29 3e b0 66 fd 3e d7 25 23 3e
       0.4024421 0.16540341 0.49492407 0.15932404
000010 39 bb 1a 3e 6a fd ce 3e 4d cc 29 bd 90 1c 92 3d
       0.15110482 0.40427715 -0.041454602 0.07134354
000020 7f d2 29 be 1a f3 e9 3e 3d b3 00 3e 70 85 ec 3d
       -0.16584204 0.45693284 0.12568374 0.11548889
000030 74 e0 ff bd 98 65 3b be 5a 89 1a be 8f b7 05 3e
       -0.12493983 -0.18300474 -0.15091458 0.13058303
000040 91 63 e4 3e 55 17 ec 3e 7d 39 29 be b0 df 82 3e
       0.44607213 0.4611155 -0.16525836 0.25561285
000050 f6 8a 67 3b bc 2b e6 3e 5f 8a df 3e 61 1f 41 3e
       0.003533063 0.44955242 0.43660256 0.18859626
000060 d8 7c 99 3e 5b c9 b8 3e a6 23 b0 3d 24 0e ab 3c
       0.2997806 0.36091122 0.086005494 0.020880766
000070 fa a0 1e be ee a8 7b 3c be 27 1b 3e 9a 14 94 3e
       -0.15491095 0.0153601 0.15151879 0.28921968
000080 c0 64 8b 3e 00 a0 ec 3e 4c aa 14 3d b6 66 eb bb
       0.27225304 0.4621582 0.03629522 -0.007183875
000090 95 e8 29 3e 2f 01 5b bd 75 12 fb 3d 18 f9 b6 3e
       0.16592629 -0.053467926 0.1225938 0.35736918
0000a0 11 b4 a0 3e cc e1 bc 3e 35 b9 89 3e 62 b1 2f be
       0.3138738 0.3689102 0.26899114 -0.1715751
0000b0 7d 05 c8 3e 3b 78 bb 3e 2a 0f 5a 3e 48 05 46 bc
       0.39066687 0.36615166 0.21294847 -0.01208622
0000c0 5b e5 4a 3e 0b aa 96 bd aa ce d4 bd de 63 d8 3e
       0.19814055 -0.07356652 -0.103909805 0.42263693
0000d0 09 e1 c6 3d b7 d0 ea 3e dd 4e 19 3e 2a 46 92 bc
       0.09710891 0.45862362 0.1497149 -0.017855722
0000e0 3b 46 7d 3e 24 8b 34 3d a9 9b e5 3e ff 4d 10 bd
       0.24733822 0.044078007 0.44845322 -0.035230633
0000f0 ae 06 91 3d d6 25 11 be 6c a3 40 3c 05 ab ab 3d
       0.07081352 -0.1417459 0.011757713 0.08382229
000100 33 3b 67 3d e7 bd 7a 3e c0 f5 6f be f3 5a 88 3e
       0.05645294 0.24486504 -0.2343359 0.2663189
000110 dd 14 40 3e 57 73 4d 3d b7 25 22 be 96 5b ac 3e
       0.18757959 0.050158825 -0.158347 0.33663625
000120 53 8a 8d 3d 5e e0 20 3c 7f f4 83 be f2 5b d1 3e
       0.06911149 0.009819118 -0.25772473 0.4089046
000130 7b 2f 70 3e 60 97 eb 3d 47 ce 80 3e 69 4e 2e bc
       0.23455612 0.11503482 0.25157377 -0.010638812
000140 82 b7 ba 3e 2a d7 7b 3d 2a a0 96 3c 46 53 4f 3e
       0.3646813 0.061484493 0.018386919 0.2024661
000150 5c 22 6b 3e 98 24 be 3e dd bb c8 3d 2f f2 00 3f
       0.22962326 0.37137294 0.09801457 0.5036954
000160 dd 43 d6 3e 99 2c 59 3e 4d 1c 30 3d 11 84 ac 3e
       0.4184865 0.21208419 0.04299574 0.3369451
000170 cd df 2b bb 45 fd e3 3e 02 34 2d 3d a1 3a a6 bc
       -0.0026225925 0.44529167 0.042285927 -0.020291628
000180 f3 55 ee bd d9 28 0e 3e 5a a6 ba 3d 6c b5 3e 3e
       -0.11637487 0.1388277 0.0911376 0.18623894
000190 03 68 86 3e 87 ef 24 3d ba 22 31 bc 32 f1 24 bb
       0.2625123 0.040267494 -0.010811502 -0.0025168178
0001a0 8c d9 1e be f2 dc 1f be d5 d1 7f 3d 37 a4 47 3c
       -0.15512675 -0.15611628 0.06245597 0.012185148
0001b0 0f 06 5f 3e 1f 6b 86 3e 85 82 c3 3e 36 8c cf 3d
       0.21779655 0.26253602 0.38185516 0.10134165
0001c0 b8 53 39 3e fa ec 0a 3e 91 b7 a0 3e d7 d1 a1 3e
       0.18098342 0.13566962 0.3139005 0.31605408
0001d0 6b 35 bf 3d 83 b5 15 3d 4d 06 50 3e 06 a3 bf 3e
       0.093363605 0.036550056 0.20314904 0.37429065
0001e0 4a 29 da 3e 9c d1 a0 3e 58 24 e8 3d 09 be 98 3e
       0.42609626 0.3140992 0.11335057 0.29832485
0001f0 54 69 20 3e 55 68 3c 3e 46 eb 40 3d fd 4e dd 3d
       0.1566518 0.18399175 0.047099374 0.108060814

linear2.weight f4 [3, 128]
000000 6c 27 08 3d 5e 13 93 3d 48 e3 d3 3d b6 3c c6 ba
       0.03324072 0.071814284 0.10346085 -0.0015124294
000010 1f 0a 5c 3e f9 fd 96 ba 7e f8 3e 3d 4d 4b d7 3d
       0.21488236 -0.0011519782 0.0466237 0.10512409
000020 f3 50 09 3c c5 00 8f 3d 24 3d b4 3a 5e 13 d3 3c
       0.008381116 0.06982569 0.0013751131 0.025766071
000030 ac 84 c5 3c d1 49 92 bd 97 a2 20 3c b6 05 b3 bd
       0.024111114 -0.071429856 0.009804389 -0.08741324
000040 4a 4e 70 3d ee 23 0a 3e fc a9 93 3d 73 f7 42 3d
       0.058668412 0.13490269 0.07210156 0.047599267
000050 14 39 a2 3c f5 d6 be 3d c3 c2 18 3e ee 16 1a 3d
       0.019802608 0.093183435 0.14918046 0.037619524
000060 87 04 25 3e b8 d5 df 3d 23 6f 4a 3d f6 d7 f8 bc
       0.16115008 0.109294355 0.049422394 -0.030376416
000070 b7 22 89 bc 0e e8 5c 3d f2 34 3d ba c4 2d f3 3d
       -0.016740186 0.053932242 -0.00072176673 0.118739635
000080 3d be 1f 3d 82 2b 0c 3e f0 e7 07 bd f1 e7 fd 3d
       0.038999785 0.13688472 -0.033180177 0.12397755
000090 e1 82 58 bc 61 12 30 bd c6 e5 4b 3e 25 4e 1a 3e
       -0.013214798 -0.042986277 0.1991187 0.15068872
0000a0 15 d6 d4 3c e0 cd bb 3d 20 b3 0e 3e 4b 72 60 3d
       0.025980989 0.09170127 0.13935518 0.0547965
0000b0 b2 fd d1 bc 23 45 03 bd c2 ab fe 3d f6 ba 72 3b
       -0.025633667 -0.032048356 0.12435104 0.0037037707
0000c0 63 24 fc 3c f3 39 68 3d 17 35 8c bd 52 11 ae bc
       0.03077907 0.05669589 -0.068460636 -0.021248493
0000d0 68 b7 25 bc 0b 97 0e 3e e5 fa 37 3e a2 81 fb 3d
       -0.010114528 0.13924806 0.17966802 0.12280585
0000e0 e2 38 36 bd 9c ba 5b 3d 70 9c 7c 3d 4e 41 18 3e
       -0.04448784 0.05364476 0.061672628 0.14868662
0000f0 fe ba e2 bd 8c dd e6 bd 8b 17 8d 3d 3e c3 21 3e
       -0.11070822 -0.112727255 0.06889256 0.15797135
000100 6c 83 1c 3e 06 0d e3 3d f8 47 84 3b 67 66 ea 3d
       0.15284508 0.110864684 0.0040368997 0.11445313
000110 96 1c a0 3d 48 1d 8c 39 4a 97 94 bc b0 85 c2 3d
       0.07817952 0.00026724697 -0.018138546 0.09498155
000120 8a c1 1c 3d 23 e8 f0 3d b7 ba b8 3c 70 8d ed 3d
       0.03827051 0.117630266 0.02254997 0.11599243
000130 2f 96 14 3e dd 02 09 3e d9 bd 3d 3e 9f d7 2f 3e
       0.14510415 0.13379999 0.18529452 0.17172097
000140 4e f2 15 3e 5b 4b 60 3a a5 a6 ae 3d 8c 79 22 3e
       0.14643213 0.0008556151 0.08527879 0.15866679
000150 05 8d 45 3e e3 c3 9a 3e 55 5b 61 3d 1d 61 45 3c
       0.19292076 0.30227575 0.05501874 0.012047079
000160 9a 68 b7 3d 34 2b 92 bc 4b b6 05 3e 59 7d 8a 3c
       0.08955498 -0.017842866 0.1305782 0.016905474
000170 0a e5 71 3d 23 df cd 3d d8 87 e9 3d 4c da 32 bd
       0.05905632 0.100523256 0.11402863 -0.043665215
000180 2b df d9 bc 98 29 2d 3c ab c8 e6 3d 33 ff e8 3c
       -0.026595673 0.010568999 0.11268743 0.028442001
000190 7b b1 fb 3c 2f 58 05 3e 07 21 ae 3d 8d 7a 8c bd
       0.030724278 0.1302192 0.08502393 -0.06859312
0001a0 32 8e 16 3e 51 2c e1 3b 8b 34 ed 3d e1 be 20 3e
       0.1470268 0.006871738 0.115822874 0.15697815
0001b0 43 01 0f 3e 38 3b 76 3d de 5d b9 3d 76 4b e8 3d
       0.13965325 0.06011507 0.09051107 0.11342518
0001c0 78 64 ce 3d fb b5 ae 3d 8a 7a 19 3e 95 58 c4 3c
       0.10077757 0.08530804 0.14988151 0.02396802
0001d0 a5 79 0e 3d de 0d cf 3d 82 6b 48 3d f5 2d 9d 3d
       0.034783978 0.10110067 0.048930652 0.07674781
0001e0 04 8d f7 bc 7f 99 5e 3e 16 7d 9d 3d bc e8 2e 3e
       -0.030218609 0.21738242 0.07689874 0.17080969
0001f0 13 d3 66 3d 9a f6 91 bd 98 1e 0f be 56 9e 8a 3d
       0.05635364 -0.07127114 -0.13976514 0.067684814
000200 53 73 40 ba 3c ef 7d 3e 14 1b 0b 3e bf 00 e4 bc
       -0.00073414034 0.24798292 0.13584548 -0.027832387
000210 7c 8e a9 3d bb 4c 2f 3e 3c 13 8d 3d 85 67 09 3d
       0.0827913 0.17119114 0.06888434 0.03354599
000220 ad c0 83 3c b6 cb 07 3e ec c4 aa 3d 99 8c 06 bd
       0.016083086 0.13261303 0.08338341 -0.032848928
000230 9a ae 2c 3b 47 65 35 bd 1e fc 9c 3c 10 1f df bd
       0.0026349188 -0.04428604 0.019163188 -0.108945966
000240 3d 16 97 3d d2 58 4a 3d bc ca 48 bd 08 ed 3e 3b
       0.073772885 0.049401112 -0.049021468 0.002913298
000250 24 e0 1b 3d af db 6e 3e 47 a8 c4 3d 51 65 7c bc
       0.038055554 0.2332599 0.09602409 -0.015405015
000260 87 28 0c bb 37 97 94 3d ab 71 f3 3d 2d 60 a3 3d
       -0.002138646 0.072554044 0.11886915 0.079773284
000270 e2 51 39 bd 7a 3c 10 3d fa e0 fc 3d 37 96 fa 3d
       -0.045244105 0.035213925 0.123475984 0.122356825
000280 60 eb fd 3d 72 43 e4 3d 47 97 12 3d cc 7f b0 3c
       0.1239841 0.11145677 0.0357888 0.021545313
000290 9a 72 e7 3d 18 10 1a 3e 4c cb 70 3e 8a f9 8e 3e
       0.113011554 0.15045202 0.23515052 0.27924758
0002a0 b3 f3 b3 3d 8b fe aa 3d 40 2c 68 3d bd 07 2f bc
       0.08786716 0.083493315 0.056682825 -0.010682997
0002b0 02 a9 47 3d 4c 85 35 3e a2 46 8a 3e eb 36 a9 3d
       0.048745163 0.1772663 0.27007014 0.08262428
0002c0 2b a6 06 3d d4 d3 1d 3e 68 50 07 bd 94 09 ee 3d
       0.032873314 0.15412837 -0.033035666 0.11622921
0002d0 c1 74 4e 3d ba 8d 55 3e 65 b2 03 3b 95 32 08 3e
       0.050404314 0.20854846 0.0020095345 0.13300546
0002e0 e9 57 3b 3e 89 1b 64 3d 52 dc e7 3d e2 ba b7 3e
       0.18295254 0.055690322 0.1132132 0.35884768
0002f0 23 3f f0 bd b0 1c 30 3d 11 80 97 3d 3a f2 56 3d
       -0.117307924 0.04299611 0.073974736 0.0524771
000300 78 cb 96 39 e1 07 fa 3c 71 86 74 bd 14 c8 42 3d
       0.00028761826 0.030521335 -0.059698526 0.04755409
000310 08 7c 05 3e d6 6d 89 bc 29 15 2f 3d 4d e2 00 3e
       0.13035595 -0.016776007 0.04274479 0.12586327
000320 ba 7f 8e 3d 2a 0b 0c 3e a9 39 5b bd 2b d8 8e 3d
       0.06957956 0.13676134 -0.053521786 0.069748245
000330 ef b6 0b 3e ee 22 2c 3d f2 e2 d2 3d 18 ea a6 3c
       0.13644002 0.0420255 0.10297193 0.020375296
000340 6e fe 47 3c dc 57 98 3c 2c 26 1a 3d 5e fc d4 3d
       0.012206657 0.018596582 0.03763406 0.10399698
000350 b7 73 14 3e 17 dc e8 3d fc 98 14 3d e3 bc a6 3d
       0.14497267 0.11370104 0.03627871 0.08141496
000360 61 e0 c4 3d 7c 5e b3 3d 5c f2 91 3d 93 b7 aa 3d
       0.096131094 0.08758256 0.071263045 0.08335795
000370 b8 2e f4 bc 09 5d dd 3d 13 82 17 3d 05 e8 a7 3d
       -0.029807433 0.10808761 0.036989283 0.08198551
000380 27 51 52 bc 63 b2 94 3d 28 65 f7 3d 27 a0 c0 3c
       -0.012836731 0.07260587 0.12079841 0.023513867
000390 e2 d5 0d 3e 87 8d 14 3e 60 79 11 bd 87 73 a1 bd
       0.13851121 0.14507113 -0.035516143 -0.07883363
0003a0 cf 6e 3c bc 48 e3 8b 3d 9e 68 ce 3d a1 ce eb bd
       -0.011501028 0.0683046 0.10078548 -0.11514021
0003b0 76 ab 1a 3e 14 48 22 3e 68 5b 13 3e fa c9 fa 3d
       0.1510447 0.15847808 0.14390337 0.12245555
0003c0 a6 ed 97 3e 9b 93 85 3d 60 d9 1b 3e 58 b9 2f 3e
       0.296735 0.06522294 0.1521964 0.17160547
0003d0 96 99 db 3e 5d 35 20 3d f6 69 24 3d ce 40 04 3d
       0.42890614 0.03911339 0.040140115 0.032288365
0003e0 7a 95 5f 3e 97 8f f7 3d cf 57 7d 3d f1 18 4d 3e
       0.21834365 0.120879345 0.06185132 0.20029046
0003f0 4d 65 84 bc 77 1c 2d 3c 59 d6 2e 3e 94 63 be 3d
       -0.016161585 0.010565869 0.17073955 0.09296337

linear2.bias f4 [3]
000000 8a 63 46 3e 5e 72 82 3e 98 7a 6e 3d
       0.19373909 0.2547788 0.058222383
